# Ultralytics YOLO 🚀, AGPL-3.0 license
# YOLOv8 object detection model with P3-P5 outputs. For Usage examples see https://docs.ultralytics.com/tasks/detect

# Parameters
nc: 80 # number of classes
scales: # model compound scaling constants, i.e. 'model=yolov8n.yaml' will call yolov8.yaml with scale 'n'
  # [depth, width, max_channels]
  n: [0.33, 0.25, 1024] # YOLOv8n summary: 225 layers,  3157200 parameters,  3157184 gradients,   8.9 GFLOPs
  s: [0.33, 0.50, 1024] # YOLOv8s summary: 225 layers, 11166560 parameters, 11166544 gradients,  28.8 GFLOPs
  m: [0.67, 0.75, 768] # YOLOv8m summary: 295 layers, 25902640 parameters, 25902624 gradients,  79.3 GFLOPs
  l: [1.00, 1.00, 512] # YOLOv8l summary: 365 layers, 43691520 parameters, 43691504 gradients, 165.7 GFLOPs
  x: [1.00, 1.25, 512] # YOLOv8x summary: 365 layers, 68229648 parameters, 68229632 gradients, 258.5 GFLOPs

# YOLOv8.0n backbone
backbone:
  # [from, repeats, module, args]
  - [-1, 1, Silence, []] # 0
  - [0, 1, nn.Upsample, [None, 0.5, "bilinear"]] # 1
  - [1, 1, nn.Upsample, [None, 0.5, "bilinear"]] # 2
  - [2, 1, nn.Upsample, [None, 0.5, "bilinear"]] # 3
  - [3, 1, nn.Upsample, [None, 0.5, "bilinear"]] # 4
  - [4, 1, nn.Upsample, [None, 0.5, "bilinear"]] # 5
  
  - [1, 1, Conv, [64, 3, 2]] # 6-z1-0
  - [2, 1, Conv, [64, 3, 1]] # 7-z1-0
  - [[-1, -2], 1, Concat, [1]] # 8
  - [-1, 3, C2fSD, [64, True]] # 9

  - [1, 1, Conv, [64, 3, 2]] # 10-z1-1
  - [2, 1, Conv, [64, 3, 1]] # 11-z1-1
  - [[-1, -2], 1, Concat, [1]] # 12
  - [-1, 3, C2fSD, [64, True]] # 13

  - [2, 1, Conv, [64, 3, 2]] # 14-z2-0
  - [3, 1, Conv, [64, 3, 1]] # 15-z2-0
  - [[-1, -2], 1, Concat, [1]] # 16
  - [-1, 3, C2fSD, [64, True]] # 17

  - [2, 1, Conv, [64, 3, 2]] # 18-z2-1
  - [3, 1, Conv, [64, 3, 1]] # 19-z2-1
  - [[-1, -2], 1, Concat, [1]] # 20
  - [-1, 3, C2fSD, [64, True]] # 21

  - [3, 1, Conv, [64, 3, 2]] # 22-z3-0
  - [4, 1, Conv, [64, 3, 1]] # 23-z3-0
  - [[-1, -2], 1, Concat, [1]] # 24
  - [-1, 3, C2fSD, [64, True]] # 25

  - [3, 1, Conv, [64, 3, 2]] # 26-z3-1
  - [4, 1, Conv, [64, 3, 1]] # 27-z3-1
  - [[-1, -2], 1, Concat, [1]] # 28
  - [-1, 3, C2fSD, [64, True]] # 29

  - [4, 1, Conv, [64, 3, 2]] # 30-z4-0
  - [5, 1, Conv, [64, 3, 1]] # 31-z4-0
  - [[-1, -2], 1, Concat, [1]] # 32
  - [-1, 3, C2fSD, [64, True]] # 33

  - [4, 1, Conv, [64, 3, 2]] # 34-z4-1
  - [5, 1, Conv, [64, 3, 1]] # 35-z4-1
  - [[-1, -2], 1, Concat, [1]] # 36
  - [-1, 1, C2fSD, [64, True]] # 37



  - [0, 1, Conv, [64, 3, 2]] # 38-P1/2
  - [1, 1, Conv, [64, 3, 1]] # 39-P1/2
  - [[-1, -2], 1, Concat, [1]] # 40
  - [-1, 1, ConvS, [64, 1, 1]] # 41-P1/2
  - [-1, 1, Conv, [128, 3, 2]] # 42-P2/4
  - [[-1, 9], 1, Concat, [1]] # 43
  - [-1, 3, C2fSD, [128, True]] # 44
  - [[-1, 13], 1, Concat, [1]] # 45
  - [-1, 1, Conv, [256, 3, 2]] # 46-P3/8
  - [[-1, 17], 1, Concat, [1]] # 47
  - [-1, 6, C2fSD, [256, True]] # 48

  - [[-1, 21], 1, Concat, [1]] # 49
  - [-1, 1, SCDown, [512, 3, 2]] # 50-P4/16
  - [[-1, 25], 1, Concat, [1]] # 51
  - [-1, 6, C2fSD, [512, True]] # 52

  - [[-1, 29], 1, Concat, [1]] # 53
  - [-1, 1, SCDown, [1024, 3, 2]] # 54-P5/32


  - [33, 1, PSASD, [64, 1]] # 55

  - [[-1, -2, 33], 1, Concat, [1]] # 56
  - [-1, 3, C2fCIB, [1024, True, True]] # 57


  - [37, 1, PSAS, [64, 1]] # 58

  - [[-1, -2, 37], 1, Concat, [1]] # 59
  - [-1, 1, SPPFS, [1024, 5]] # 60
  
  - [[-1], 1, Concat, [1]] # 61
  - [-1, 1, PSAS, [1024]] # 62
  

  - [-1, 1, SCDown, [512, 3, 2]] # 63
  - [-1, 3, PSAS, [512]] #64
  - [-1, 1, SCDown, [512, 3, 2]] # 65
  - [-1, 1, ToConvWeight, [384, 6]] #66

  - [-1, 1, SplitConvWeight, [0, 64]] #67
  - [-2, 1, SplitConvWeight, [64, 64]] #68
  - [-3, 1, SplitConvWeight, [128, 64]] #69
  - [-4, 1, SplitConvWeight, [192, 64]] #70
  - [-5, 1, SplitConvWeight, [256, 64]] #71
  - [-6, 1, SplitConvWeight, [320, 64]] #72


# YOLOv8.0n head
head:
  - [3, 1, Conv, [64, 3, 2]] # 73-z3-1
  - [4, 1, Conv, [64, 3, 1]] # 74-z3-1
  - [[-1, -2], 1, Concat, [1]] # 75
  - [-1, 3, C2fSD, [64, True]] # 76
  - [[-1, 67], 1, DynamicConvS, [64]] # 77

  - [2, 1, Conv, [64, 3, 2]] # 78-z2-1
  - [3, 1, Conv, [64, 3, 1]] # 79-z2-1
  - [[-1, -2], 1, Concat, [1]] # 80
  - [-1, 3, C2fSD, [64, True]] # 81
  - [[-1, 68], 1, DynamicConvS, [64]] # 82

  - [2, 1, Conv, [64, 3, 2]] # 83-z2-1
  - [3, 1, Conv, [64, 3, 1]] # 84-z2-1
  - [[-1, -2], 1, Concat, [1]] # 85
  - [-1, 3, C2fSD, [64, True]] # 86
  - [[-1, 69], 1, DynamicConvS, [64]] # 87

  - [3, 1, Conv, [64, 3, 2]] # 88-z3-1
  - [4, 1, Conv, [64, 3, 1]] # 89-z3-1
  - [[-1, -2], 1, Concat, [1]] # 90
  - [-1, 3, C2fSD, [64, True]] # 91
  - [[-1, 70], 1, DynamicConvS, [64]] # 92

  - [3, 1, Conv, [64, 3, 2]] # 93-z3-1
  - [4, 1, Conv, [64, 3, 1]] # 94-z3-1
  - [[-1, -2], 1, Concat, [1]] # 95
  - [-1, 3, C2fSD, [64, True]] # 96
  - [[-1, 71], 1, DynamicConvS, [64]] # 97

  - [4, 1, Conv, [64, 3, 2]] # 98-z4-1
  - [5, 1, Conv, [64, 3, 1]] # 99-z4-1
  - [[-1, -2], 1, Concat, [1]] # 100
  - [-1, 3, C2fSD, [64, True]] # 101
  - [[-1, 72], 1, DynamicConvS, [64]] # 102


  - [62, 1, nn.Upsample, [None, 2, "nearest"]] # 103
  - [[-1, 52, 76, 77], 1, Concat, [1]] # 104
  - [-1, 3, C2fSD, [512]] # 105

  - [-1, 1, nn.Upsample, [None, 2, "nearest"]] # 106
  - [[-1, 48, 81, 82], 1, Concat, [1]] # 107
  - [-1, 3, C2fSD, [256]] # 108 (P3/8-small)
  
  - [[-1, 86, 87], 1, Concat, [1]] # 109-cat backbone P3
  - [-1, 1, Conv, [256, 3, 2]] # 110
  - [[-1, 105, 91, 92], 1, Concat, [1]] # 111
  - [-1, 3, C2fSD, [512]] # 112 (P4/16-medium)
  
  - [[-1, 96, 97], 1, Concat, [1]] # 113-cat backbone P3
  - [-1, 1, SCDown, [512, 3, 2]] # 114
  - [[-1, 62, 101, 102], 1, Concat, [1]] # 115
  - [-1, 3, C2fCIB, [1024, True, True]] # 116 (P5/32-large)

  - [[108, 112, 116], 1, Detect, [nc]] # Detect(P3, P4, P5)